KEY QUALITY
JOB ID: 23976632
EPOCHS: default
FREEZE_PRETRAINED: True
----------------------------------------------------------------
Device: CUDA
Device Name: Tesla V100-FHHL-16GB
Memory Usage:
  - Allocated: 0.4 GB
  - Cached: 0.5 GB
================================================================
Summary of Neural Network:
----------------------------------------------------------------
        Layer (type)               Output Shape         Param #
================================================================
            Conv2d-1         [-1, 16, 258, 864]             448
              ReLU-2         [-1, 16, 258, 864]               0
         MaxPool2d-3         [-1, 16, 129, 432]               0
            Conv2d-4         [-1, 32, 131, 434]           4,640
              ReLU-5         [-1, 32, 131, 434]               0
         MaxPool2d-6          [-1, 32, 65, 217]               0
            Conv2d-7          [-1, 64, 67, 219]          18,496
              ReLU-8          [-1, 64, 67, 219]               0
         MaxPool2d-9          [-1, 64, 33, 109]               0
           Conv2d-10         [-1, 128, 35, 111]          73,856
             ReLU-11         [-1, 128, 35, 111]               0
        MaxPool2d-12          [-1, 128, 17, 55]               0
          Flatten-13               [-1, 119680]               0
           Linear-14                 [-1, 1000]     119,681,000
             ReLU-15                 [-1, 1000]               0
           Linear-16                  [-1, 500]         500,500
             ReLU-17                  [-1, 500]               0
           Linear-18                  [-1, 100]          50,100
             ReLU-19                  [-1, 100]               0
           Linear-20                    [-1, 1]             101
          Sigmoid-21                    [-1, 1]               0
================================================================
Total params: 120,329,141
Trainable params: 120,329,141
Non-trainable params: 0
----------------------------------------------------------------
Input size (MB): 2.53
Forward/backward pass size (MB): 117.95
Params size (MB): 459.02
Estimated Total Size (MB): 579.50
----------------------------------------------------------------
…
